snake pygame/model/model.pth (torch, 16787 bytes, 4 tensors)

linear1.weight f4 [256, 11]
0	0x3ed15d2f	0.40891406
1	0xbecd19d1	-0.4005876
2	0x3ee4b7d0	0.44671488
3	0x3e635516	0.22200426
4	0x3d06f688	0.032949954
5	0x3e290f7b	0.16509812
6	0xbe641acc	-0.22275847
7	0xbddd16bb	-0.10795351
8	0x3e925326	0.28579062
9	0xbe82c77f	-0.25542828
10	0x3e0aa45f	0.13539265
11	0xbe49c6bc	-0.19704717
12	0xbe982ac1	-0.2972012
13	0xbe369fb5	-0.17834361
14	0xbe16d6c9	-0.14730372
15	0x3e086ae9	0.13322033
16	0xbe3a2040	-0.18176365
17	0x3e437c8d	0.19090481
18	0xbe827e4c	-0.25486982
19	0x3dc98748	0.09840256
20	0xbe71d3cc	-0.2361595
21	0xbe807cd9	-0.2509525
22	0x3e84747f	0.2587013
23	0x3db335ea	0.08750518
24	0x3ee16d7a	0.44028836
25	0xbda1fdf4	-0.07909766
26	0x3dac39e6	0.08409481
27	0x3e27561f	0.16341446
28	0x3e83c75f	0.25738046
29	0x3e860993	0.2617918
30	0x3ead0cfd	0.33798972
31	0xbce44447	-0.027864588
32	0x3e730cdc	0.23735374
33	0xbe179173	-0.14801578
34	0xbe7b7cf9	-0.24559392
35	0xbe7febe2	-0.24992326
36	0xbe3fab02	-0.18717578
37	0xbe542554	-0.20717365
38	0xbe8f2aac	-0.27962244
39	0x3d411bb8	0.047145575
40	0xbe50758f	-0.20357345
41	0xbe75f0b0	-0.24017596
42	0xbe963b34	-0.29342043
43	0xbe6c113d	-0.23053451
44	0x3e7c9ec8	0.24669945
45	0x3d645c59	0.055752132
46	0x3eb6041f	0.3555002
47	0x3e4db884	0.20089918
48	0xbda4a3c4	-0.08039048
49	0x3e6efab1	0.23337819
50	0x3cf3db3f	0.02976763
51	0x3e1488a5	0.14505251
52	0x3d74acaa	0.059734978
53	0xbe6a3405	-0.22871406
54	0x3de49e9e	0.11163066
55	0xbe33c710	-0.17556405
56	0x3d8c3e66	0.06847839
57	0xbe22e31d	-0.1590695
58	0x3e668801	0.22512819
59	0xbe6e9c3d	-0.23301788
60	0xbdacdb5c	-0.08440277
61	0xbd375687	-0.044760253
62	0xbe820754	-0.25396216
63	0xbd87dcb0	-0.0663389
64	0x3e82172f	0.25408313
65	0xbe53b1b6	-0.2067326
66	0xbe23a6f6	-0.1598166
67	0xbe9b6f67	-0.3035843
68	0x3ebc51e5	0.3678123
69	0x3e0eadeb	0.13933532
70	0x3e343b5c	0.17600769
71	0x3d051a6f	0.032495912
72	0x3e5a023e	0.21289918
73	0x3ddccd01	0.10781289
74	0x3d9627df	0.073318236
75	0x3e4cf5ea	0.20015684
76	0xbe2263f7	-0.15858446
77	0x3ed6977d	0.4191245
78	0xbd7a27b1	-0.06107301
79	0x3ec66fa8	0.38757062
80	0xbe845b50	-0.25850916
81	0x3da94d74	0.08266726
82	0xbd0e553c	-0.034749255
83	0xbb53a26f	-0.0032292863
84	0x3e7cee64	0.24700314
85	0xbd7826f5	-0.060584027
86	0x3d91ece9	0.07125265
87	0x3defe8b4	0.117143065
88	0xbc7ee3ed	-0.015557271
89	0xbd4a6ed2	-0.049422093
90	0x3e7531d7	0.23944794
91	0xbe22d5f9	-0.15901937
92	0x3dd29913	0.10283103
93	0x3e8bc4b9	0.27298525
94	0xbb9b12d8	-0.004732471
95	0x3e935e8b	0.28783068
96	0xbec22415	-0.37918153
97	0xbe4b523f	-0.19855593
98	0x3d5ac5cf	0.0534113
99	0x3ee45e4f	0.44603202
100	0x3dab9bf5	0.08379356
101	0xbe7aa528	-0.24477065
102	0x3e921d73	0.28538093
103	0x3e9e0cab	0.3086904
104	0xbdf769aa	-0.12080701
105	0x3e49c72c	0.19704884
106	0x3e9556c1	0.2916775
107	0xbe3f0e19	-0.18657722
108	0x3e5430c2	0.20721725
109	0xbde19ce5	-0.110162534
110	0xbe87d9aa	-0.26533252
111	0x3e9ce772	0.3064533
112	0x3e02f9ec	0.1279065
113	0x3e773a33	0.24143295
114	0x3e9d5d07	0.30735037
115	0xbdf3404c	-0.11877498
116	0x3e3fce45	0.1873103
117	0xbe9670db	-0.29382977
118	0x3e5224de	0.20521876
119	0xbe8a9305	-0.27065292
120	0x3e538fcf	0.20660327
121	0x3e17dc03	0.14830022
122	0xbdf66bbb	-0.12032267
123	0xbe9a68b1	-0.30157998
124	0xbe61e9ae	-0.22061798
125	0x3e04379e	0.12911841
126	0x3cefd2c2	0.029275302
127	0x3d597c38	0.05309698
128	0x3e14d1a7	0.14533101
129	0x3d2424df	0.040074226
130	0x3ca9a336	0.020707708
131	0xbe4f0ca2	-0.20219663
132	0x3de9a1ed	0.11407838
133	0x3b7b95d9	0.0038388877
134	0xbe6c4296	-0.23072276
135	0xbe6f64b8	-0.23378265
136	0xbe77ae2e	-0.24187538
137	0x3b023a20	0.001987107
138	0x3e5586eb	0.20852248
139	0xbe3109f6	-0.17288956
140	0x3e169a54	0.14707309
141	0xbe515d01	-0.20445634
142	0xbe0a23aa	-0.13490167
143	0x3dfacb34	0.12245789
144	0xbcb4eefd	-0.022086615
145	0xbe877e11	-0.2646337
146	0xbcd16a7b	-0.02556347
147	0xbe908150	-0.28223658
148	0x3e5c78a4	0.21530396
149	0x3dcd097e	0.10011576
150	0x3c9a8503	0.018862253
151	0xbe361f7a	-0.17785445
152	0x3e2780cb	0.16357724
153	0xbe9bf30d	-0.3045887
154	0x3e993a8e	0.29927486
155	0x3ef43267	0.47694704
156	0xbeb2fb57	-0.34957382
157	0x3e401987	0.18759738
158	0x3eafcdbc	0.3433665
159	0x3e71505c	0.23565811
160	0x3d8a58c5	0.06755213
161	0xbe2408cd	-0.16018982
162	0x3e51ffd0	0.20507741
163	0xbd861848	-0.065476
164	0xbe85d8f6	-0.2614209
165	0xbe86f4dc	-0.26358688
166	0x3e6c719a	0.2309021
167	0x3e73ec01	0.23820497
168	0xbc837049	-0.016044753
169	0xbba4c16a	-0.0050279396
170	0xbe8efeb7	-0.27928707
171	0xbe0712b1	-0.13190724
172	0x3e82613d	0.25464812
173	0x3ea79018	0.32727122
174	0x3e4fd9dd	0.20297952
175	0x3dd8b43b	0.10581251
176	0xbe98b163	-0.29822835
177	0x3f09cbc4	0.53826547
178	0x3cb123bd	0.021623487
179	0x3e707db8	0.23485458
180	0x3d7b3682	0.06133128
181	0xbe726c56	-0.2367414
182	0xbe3abd92	-0.18236378
183	0x3d522dbf	0.051313158
184	0x3eb06968	0.3445542
185	0xbda64ed6	-0.081205055
186	0x3e2197bb	0.15780537
187	0x3ed96d28	0.42466092
188	0xbc8de443	-0.017320758
189	0x3ecc679a	0.39922792
190	0x3ea0e585	0.3142511
191	0x3e5799a5	0.21054704
192	0x3dff6a7e	0.12471484
193	0xbe37769b	-0.17916338
194	0xbe5137a2	-0.20431378
195	0x3dc36bcf	0.09542047
196	0x3d9b51a9	0.07583935
197	0x3e0d0acb	0.13773648
198	0xbd96e374	-0.07367602
199	0xbd43f50a	-0.04784111
200	0x3d991e06	0.0747643
201	0xbdb804b1	-0.0898527
202	0xbdc34297	-0.095341854
203	0x3d336733	0.04379959
204	0x3e51cdf7	0.20488726
205	0xbed13d03	-0.4086686
206	0xbcc61b28	-0.024182871
207	0xbea4899c	-0.32136238
208	0x3e4223b4	0.18958932
209	0x3d1ebbb6	0.038753234
210	0xbdf02841	-0.11726428
211	0x3df3f5fb	0.119121514
212	0x3df9e84f	0.122025125
213	0x3e0cb2f0	0.13740134
214	0xbdf9ca00	-0.121967316
215	0xbe57299b	-0.21011965
216	0x3d4ae807	0.049537685
217	0xbd49aa24	-0.049234524
218	0xbec7f494	-0.39053786
219	0x3e9d991b	0.30780873
220	0x3e8138b3	0.2523857
221	0x3ec55d94	0.38547957
222	0xbe58bccc	-0.2116577
223	0x3dd2e38d	0.10297308
224	0x3e803728	0.2504208
225	0xbea9ec7f	-0.33188245
226	0x3e79cfe7	0.24395715
227	0xbdd1a1e8	-0.10235959
228	0xbd90d7d4	-0.07072416
229	0x3e925bfc	0.28585804
230	0xbd169938	-0.036767215
231	0xbe23b884	-0.15988356
232	0x3e5909c7	0.21195136
233	0x3e1f2e26	0.15544948
234	0x3dab9a55	0.08379046
235	0xbda83388	-0.08212954
236	0xbd612e53	-0.05497582
237	0xbe03f3d8	-0.12885988
238	0x3e7e139c	0.24812168
239	0xbe39adb0	-0.18132663
240	0x3db2e614	0.0873529
241	0xbe74b71a	-0.23897973
242	0xbe35f694	-0.17769843
243	0x3e856f59	0.26061514
244	0x3ec42beb	0.38314757
245	0x3d2bd52f	0.041951355
246	0x3e3afea7	0.18261205
247	0xbe7dab88	-0.24772465
248	0x3d988169	0.07446558
249	0x3df4c8c5	0.11952356
250	0xbdc98ba3	-0.09841087
251	0xbebc4742	-0.36773115
252	0x3e1a079a	0.15041962
253	0x3ebd123f	0.36927983
254	0x3ea8ef05	0.32994857
255	0xbdca2506	-0.09870343

linear1.bias f4 [256]
0	0x3e00f685	0.1259404
1	0xbdc4b213	-0.096042775
2	0x3e8eda3b	0.27900872
3	0xbe446d04	-0.19182211
4	0x3d2e9d2f	0.04263037
5	0x3e0b3ee2	0.13598207
6	0xbda8c620	-0.08240914
7	0xbdc5397f	-0.09630107
8	0xbdba147e	-0.0908594
9	0xbdec3391	-0.11533273
10	0x3e5f8a6e	0.2183015
11	0x3e136b88	0.14396489
12	0xbe05ca80	-0.13065529
13	0xbe57b311	-0.21064402
14	0x3dd9afe4	0.106292516
15	0x3e9ef765	0.31048122
16	0xbe24d551	-0.16096999
17	0x3d58f602	0.052968986
18	0xbd96467b	-0.07337662
19	0x3c94314f	0.018089918
20	0x3c9ebbcd	0.01937666
21	0x3d4b0c48	0.04957226
22	0xbea2b2af	-0.3177695
23	0x3d576508	0.052586585
24	0x3dad5bdb	0.08464786
25	0x3e88f37b	0.2674826
26	0x3e7eac60	0.24870443
27	0xbd41c5a9	-0.047307644
28	0x3d141724	0.03615488
29	0x3d9921c2	0.07477142
30	0xbba1dd04	-0.004939677
31	0x3d3ee66b	0.046606462
32	0xbd9e06d6	-0.077161476
33	0xbe1ddef5	-0.15417083
34	0x3e626d4d	0.22112007
35	0x3d45b39c	0.048266992
36	0x3e9fe6d3	0.31230792
37	0x3ec5c16e	0.38624138
38	0xbdeafb4a	-0.11473711
39	0xbd336823	-0.043800484
40	0xbd857b48	-0.06517655
41	0x3e31fcb2	0.17381552
42	0xbe52106e	-0.2051408
43	0xbe724ab1	-0.23661305
44	0xbe140b56	-0.1445745
45	0x3da229db	0.079181395
46	0xbc9f021c	-0.019410186
47	0xbcdb90bb	-0.026802411
48	0xbc74e1ff	-0.01494646
49	0xbdca0a1a	-0.09865208
50	0x3e8af3bf	0.2713909
51	0x3ea74441	0.3266926
52	0xbe2988cc	-0.1655609
53	0x3e569180	0.20953941
54	0xbdd65cbd	-0.10466907
55	0xbe8f1527	-0.27945825
56	0x3e96b504	0.2943498
57	0x3e3a8fda	0.18218938
58	0x3e4e9999	0.2017578
59	0x3dd1e988	0.10249621
60	0x3e9136bf	0.2836208
61	0x3d33217e	0.043733113
62	0xbddc2cb2	-0.107507125
63	0xbd7840ee	-0.060608797
64	0xbe774ee8	-0.24151194
65	0xbe023e89	-0.12719168
66	0x3e918dd2	0.28428513
67	0xbd93c529	-0.0721534
68	0x3e956c56	0.29184216
69	0x3ea2d259	0.31801108
70	0x3db49d5e	0.08819078
71	0x3e9dd016	0.3082282
72	0x3e1fa70e	0.1559107
73	0xbdfa034f	-0.12207662
74	0x3ea2f8b7	0.3183038
75	0xbe17be99	-0.14818801
76	0xbe86cb37	-0.26326916
77	0x3d84d031	0.06485022
78	0xbe24833d	-0.16065688
79	0x3dddc6a4	0.10828903
80	0x3e6b10ee	0.22955677
81	0x3b914a62	0.004433916
82	0xbd3aa7df	-0.04557025
83	0x3c84cf23	0.016212052
84	0xbdd02a2f	-0.10164296
85	0xbe2f25a0	-0.17104197
86	0xbe80788a	-0.25091964
87	0x3e131041	0.14361669
88	0x3e8f5c95	0.28000322
89	0xbe936c88	-0.2879374
90	0x3e8281a8	0.25489545
91	0xbea5e751	-0.32403043
92	0x3c53a6c0	0.012918174
93	0xbdbc2709	-0.09187133
94	0x3e9543b4	0.29153216
95	0xbe3cbc93	-0.1843131
96	0x3ea06497	0.31326744
97	0xbd8a3bae	-0.06749664
98	0x3e04fe53	0.12987642
99	0x3e0906be	0.13381478
100	0xbdf2d6e0	-0.118573904
101	0x3e66355f	0.22481297
102	0x3d7d5026	0.061844014
103	0xbe826845	-0.25470176
104	0x3e819660	0.2531004
105	0xbdb9d790	-0.090743184
106	0xbc8deae6	-0.017323922
107	0xbdd42114	-0.10357872
108	0xbdb61527	-0.08890753
109	0xbea40dca	-0.3204177
110	0x3aa3835b	0.001247506
111	0x3e105933	0.14096527
112	0xbcbf2cc7	-0.023336781
113	0x3da3e0e8	0.08001882
114	0xbced0b01	-0.028935911
115	0x3de9a7fa	0.11408992
116	0xbe1d8fd5	-0.15386899
117	0x3eccafc0	0.39977837
118	0xbbeafb81	-0.007171095
119	0xbd84369b	-0.06455728
120	0x3e989c0e	0.2980656
121	0xbe961fc3	-0.29321107
122	0xbdd821bf	-0.105533116
123	0x3d9a6b45	0.07539991
124	0x3d93775e	0.07200502
125	0xbe7b00da	-0.24512044
126	0xbd9ada65	-0.07561187
127	0x3e515722	0.20443395
128	0xbcec99b6	-0.028881889
129	0xbd98c030	-0.07458532
130	0x3be5629b	0.00700028
131	0x3e13abcb	0.14421003
132	0x3ec36a9b	0.3816727
133	0xbd521613	-0.051290583
134	0x3d46976c	0.04848425
135	0x3e64af20	0.2233243
136	0xbc5dcd83	-0.013537767
137	0xbe340607	-0.17580424
138	0x3e896fe0	0.26843166
139	0xbe75a728	-0.23989546
140	0x3d8574c1	0.0651641
141	0x3ddbbd26	0.107294366
142	0xbd62d36f	-0.05537742
143	0xbeac2179	-0.33619288
144	0xbe3ae8a9	-0.18252815
145	0xbe286cfc	-0.16447824
146	0xbd133dfd	-0.03594779
147	0xbdff4b68	-0.124655545
148	0x3e9aa7ec	0.3020624
149	0x3db17d7c	0.08666512
150	0xbeab8c27	-0.33505365
151	0x3e070ebb	0.13189213
152	0xbe38f8d2	-0.18063667
153	0x3e3aa202	0.18225864
154	0xbdacdda7	-0.08440714
155	0xbc49a438	-0.012307219
156	0xbdedb055	-0.11605898
157	0x3ead7a29	0.33882263
158	0x3ecd7838	0.40130782
159	0x3e7dff75	0.2480448
160	0xbe65354f	-0.22383617
161	0x3d203a29	0.039117966
162	0x3d3af0c7	0.04563978
163	0x3e068888	0.1313802
164	0xbe5e2798	-0.21694791
165	0xbcbd3f17	-0.023101373
166	0x3ef052cd	0.46938172
167	0x3dfa649a	0.122262195
168	0x3e1a3f43	0.15063195
169	0xbd9c42b1	-0.07629908
170	0x3e964eb8	0.29356933
171	0x3e17a140	0.14807606
172	0xbe04bcfd	-0.12962718
173	0xbcfc894e	-0.03082719
174	0xbd42eadd	-0.047587264
175	0x3e1c3710	0.1525538
176	0x3c05ccf9	0.008166545
177	0x3ca8bebd	0.020598764
178	0x3e9e36a2	0.30901057
179	0xbd96fb8f	-0.073722
180	0x3c5f6d43	0.01363689
181	0xbe80f82b	-0.25189337
182	0x3e862472	0.2619968
183	0xbe806686	-0.2507822
184	0x3e9a81a0	0.3017702
185	0x3e87ad3b	0.26499352
186	0x3e53216d	0.2061822
187	0xbdd189bd	-0.102313496
188	0xbd3aa32d	-0.045565773
189	0x3e4eb522	0.20186284
190	0x3d3c7789	0.046012435
191	0xbcd97ba6	-0.026548218
192	0xbdf6bf06	-0.120481536
193	0xbea4c750	-0.32183313
194	0xbe3c415b	-0.18384306
195	0x3c763457	0.015027127
196	0xbe25a87c	-0.16177553
197	0xbe102431	-0.14076306
198	0x3e1f64c7	0.15565787
199	0x3d704417	0.058658686
200	0xbe72fa97	-0.23728405
201	0x3e9c05f1	0.30473283
202	0xbc9d7286	-0.019219648
203	0x3cb1e3d2	0.021715079
204	0xbe77b1d0	-0.24188924
205	0x3d3af89a	0.04564724
206	0xbeab09a2	-0.33405787
207	0xbbc72a26	-0.0060780225
208	0xbe4ee70b	-0.20205323
209	0x3dc7e894	0.09761158
210	0xbe0b4a02	-0.1360245
211	0xbd129685	-0.035788078
212	0x3b1df57a	0.0024102614
213	0x3ec03f86	0.37548465
214	0x3ddf1879	0.1089334
215	0x3dd7bdcc	0.10534248
216	0x3e1ada2e	0.15122291
217	0x3da2de3f	0.07952546
218	0x3e89f0e6	0.26941603
219	0x3e9fb34d	0.31191483
220	0xbe65c623	-0.22438864
221	0x3e53ce96	0.20684275
222	0x3e6c2ec8	0.2306472
223	0xbd9b4807	-0.075820975
224	0x3d28aaf1	0.041178647
225	0xbd93f3e0	-0.0722425
226	0xbe25a416	-0.16175875
227	0xbe235646	-0.1595088
228	0x3e0c510c	0.13702792
229	0x3e1b76e6	0.15182075
230	0x3e868e1a	0.2628029
231	0x3e5a5316	0.21320757
232	0x3e5b5218	0.21418035
233	0xbe8bf74f	-0.2733712
234	0x3edc2abb	0.4300135
235	0xbe968e1f	-0.29405305
236	0xbdc8110e	-0.09768878
237	0x3e55f649	0.20894732
238	0xbe68e2a7	-0.22742711
239	0x3e2c0943	0.16800408
240	0x3e785814	0.24252349
241	0x3e9477bd	0.28997603
242	0x3e108339	0.14112557
243	0xbe3fcbf8	-0.18730152
244	0xbdb1c461	-0.086800344
245	0x3e1f67a7	0.15566884
246	0x3e92b1be	0.28651232
247	0x3dbb73a8	0.09152919
248	0xbb164acc	-0.0022932766
249	0xbe0bf707	-0.13668452
250	0xbddda44a	-0.10822351
251	0xbdefe431	-0.11713446
252	0x3e42128d	0.18952389
253	0xbdf0a85f	-0.11750864
254	0xbd2ed1a0	-0.042680383
255	0xbe1d53d6	-0.15364012

linear2.weight f4 [3, 256]
0	0xbdb4dfd8	-0.08831757
1	0xbd29f445	-0.04149272
2	0xbddad147	-0.10684448
3	0x3d1af8d0	0.037834942
4	0xbdf733ed	-0.12070451
5	0x3d276300	0.040865898
6	0xbac0f03a	-0.0014720031
7	0xbe10d702	-0.14144519
8	0xbdb2d7f4	-0.08732596
9	0xbe17a805	-0.14810188
10	0x3d0d2606	0.03446009
11	0xbd00f2a5	-0.031481404
12	0xbd49f463	-0.04930533
13	0x3d61d574	0.055135205
14	0xbd3a20ed	-0.045441557
15	0xbb44779a	-0.0029978515
16	0x3e7aded8	0.2449907
17	0xbe2948bd	-0.16531654
18	0xbc836e3b	-0.016043773
19	0xbcca6280	-0.024705172
20	0xbe09a8b9	-0.13443269
21	0xbd8dbcf2	-0.06920804
22	0x3d746667	0.05966797
23	0xbe18d423	-0.14924674
24	0xbe3dae39	-0.18523492
25	0x3d7b9c63	0.06142844
26	0xbd8c0845	-0.06837515
27	0xbdc12e32	-0.09432639
28	0xbd728408	-0.059207946
29	0xbe198103	-0.1499062
30	0x3caafa65	0.02087135
31	0x3ce2f2c8	0.027703658
32	0xbcd6a445	-0.026201377
33	0xbd92c5b2	-0.07166614
34	0xbde708b5	-0.112809576
35	0x3d8ee388	0.06976992
36	0x3d87da9f	0.066334955
37	0xbdeffad7	-0.11717766
38	0xbccd0b30	-0.025029749
39	0x3e066ade	0.13126704
40	0xbda0475c	-0.07826111
41	0xbd37f502	-0.044911392
42	0x3cb27c50	0.021787792
43	0xbd608e7e	-0.05482339
44	0xbe855f10	-0.2604909
45	0xbe22c952	-0.1589711
46	0xbdb66747	-0.08906417
47	0xbe0f6ca6	-0.1400629
48	0x3ce092f5	0.027413825
49	0xbded19c5	-0.11577181
50	0xbcda0b67	-0.026616765
51	0x3dadf830	0.08494604
52	0xbd621bf4	-0.05520244
53	0x3c97aa3c	0.018513791
54	0xbd74824c	-0.059694573
55	0x3d751412	0.059833594
56	0xbc86af74	-0.016441084
57	0xbcaa7309	-0.020806806
58	0x3d81af4e	0.06332265
59	0x3bac9543	0.005266817
60	0x3cda16fa	0.026622284
61	0xbde5f83f	-0.1122899
62	0xbe208a56	-0.15677771
63	0x3d4e7bc3	0.050410997
64	0x3d13ae44	0.036054865
65	0x3d743be6	0.059627436
66	0xbe31ba60	-0.17356253
67	0xbde15cf5	-0.11004058
68	0xbde3ef99	-0.11129684
69	0xbd3153b4	-0.043292716
70	0xbc4be699	-0.0124451155
71	0xbe039ab5	-0.12851985
72	0xbd40376e	-0.046927862
73	0xbe162dab	-0.14665858
74	0xbdcf527f	-0.10123157
75	0xbd1a25a4	-0.037633553
76	0x3dff39bf	0.12462186
77	0xbd7971a4	-0.06089939
78	0xbe2b7d85	-0.167471
79	0x3de3df19	0.11126537
80	0x3d571b43	0.052516233
81	0xbcc73c74	-0.024320818
82	0xbd1ffcb9	-0.039059374
83	0x3bd8921c	0.0066092145
84	0xbe3a2e2a	-0.18181673
85	0x3d8f8a0d	0.07008753
86	0x3b6033f1	0.0034210647
87	0xbde57295	-0.112034954
88	0x3da45d81	0.08025647
89	0xbd9b996b	-0.075976215
90	0x3d0fec1c	0.03513728
91	0x3d19b244	0.037523523
92	0x3d55d3cd	0.052203942
93	0x3da0c00b	0.07849129
94	0xbdc34334	-0.09534302
95	0x3d1f2bbd	0.03886007
96	0xbd5aeafe	-0.053446762
97	0x3d593216	0.05302628
98	0xbdf7562b	-0.12076982
99	0x3d11bddb	0.03558145
100	0x3d1cca42	0.038278826
101	0x3e0502b0	0.12989306
102	0xbc852525	-0.016253063
103	0x3c6d7f5d	0.014495698
104	0xbd12639c	-0.035739526
105	0x3b0114fa	0.001969634
106	0xbcb7ed5b	-0.022452047
107	0xbe201b68	-0.15635455
108	0xbba5e4d3	-0.0050626784
109	0xbd549d7f	-0.051908012
110	0xbd85460f	-0.06507503
111	0xbe0bfab0	-0.13669848
112	0x3d930941	0.071794994
113	0xbe023d67	-0.12718736
114	0x3d9c9b5e	0.076468214
115	0xbd3ad7c8	-0.04561594
116	0x3d0b78f2	0.03405089
117	0xbd12d9ea	-0.03585235
118	0xbe25c6d8	-0.16189134
119	0xbddfb126	-0.1092246
120	0xbd8ff9c8	-0.07030064
121	0xbda8ec3c	-0.08248183
122	0xbd40e44f	-0.047092732
123	0xbdfab458	-0.12241429
124	0x3e12cb3a	0.14335337
125	0xbd5dd852	-0.054161377
126	0xbccd1322	-0.025033537
127	0x3dc62bf3	0.096763514
128	0x3dc0e02b	0.09417757
129	0xbd1e4347	-0.03863838
130	0xbd17d3d5	-0.037067253
131	0x3cfdf4fd	0.031000609
132	0xbd5edd79	-0.05441043
133	0xbddf85a3	-0.10914161
134	0xbd734867	-0.05939522
135	0x3dcf05d0	0.101085305
136	0xbdda9d30	-0.106745124
137	0xbd56f4f0	-0.052479684
138	0x3b664398	0.0035135504
139	0xbe0be4a8	-0.13661444
140	0xbd191377	-0.03737208
141	0xbdeb807a	-0.11499114
142	0x3d80609f	0.06268429
143	0xbc8666ee	-0.016406503
144	0x3ca478dd	0.020077163
145	0xbda5dcad	-0.08098731
146	0xbe147d3c	-0.14500898
147	0x3ceb098f	0.028691081
148	0x3d02061e	0.031744115
149	0xbde79236	-0.113071844
150	0xbd62e424	-0.055393353
151	0xbdb2cd51	-0.08730567
152	0xbd03ce69	-0.03217927
153	0x3c25b2e1	0.010113449
154	0xbdc0bd68	-0.094111264
155	0xbc0a8894	-0.008455414
156	0xbe261b3f	-0.16221331
157	0xbdcaec4e	-0.09908353
158	0xbd81fdab	-0.063472115
159	0xbd4f0781	-0.050544266
160	0x3d28bee8	0.041197687
161	0xbe1abd1b	-0.151112
162	0xbe44f7dc	-0.19235176
163	0xbcb55060	-0.022133052
164	0xbe102fbd	-0.1408071
165	0xbdcc8f4e	-0.09988271
166	0xbd37b2e8	-0.044848353
167	0xbdcc3cca	-0.09972532
168	0xbd25fe76	-0.040525876
169	0xbdcf4895	-0.10121266
170	0xbc66d090	-0.014087811
171	0x3e1c67df	0.15273999
172	0xbd5fd21c	-0.054643735
173	0x3df0cff7	0.11758416
174	0xbddee0db	-0.108827315
175	0xbd80a3bd	-0.062812306
176	0x3e1a0feb	0.15045135
177	0xbde5aa29	-0.11214096
178	0xbd202a0b	-0.039102595
179	0xbe5517ff	-0.20809935
180	0xbdc21877	-0.094773225
181	0xbcb9d733	-0.022685623
182	0xbcac1fe4	-0.0210113
183	0xbdc0eae2	-0.094198
184	0xbdc58856	-0.09645145
185	0xbd56a079	-0.052399132
186	0xbd72f158	-0.059312195
187	0x3d0b9306	0.03407576
188	0xbdf8a895	-0.121415295
189	0x3cf70711	0.030154737
190	0xbdaaf7cc	-0.08348045
191	0x3d2c95b6	0.042134963
192	0xbd01878a	-0.0316234
193	0x3c8f2906	0.017475616
194	0xbe241907	-0.16025172
195	0xbd216e71	-0.039411966
196	0xbde17474	-0.1100854
197	0x3d3cb8de	0.04607474
198	0xbdf37a48	-0.11888558
199	0xbdbcdef1	-0.0922221
200	0xbc8a1b25	-0.016858647
201	0xbe0a5566	-0.1350914
202	0x3c88022f	0.016602604
203	0xbdd03f94	-0.101683766
204	0xbd0772da	-0.033068515
205	0x3c0002da	0.00781318
206	0x3d02f002	0.03196717
207	0xbd981f5d	-0.07427857
208	0xbdf3f4ef	-0.11911952
209	0xbd9bd947	-0.07609802
210	0x3d38145e	0.0449413
211	0xbd01f15a	-0.03172431
212	0x3da1bf6f	0.07897841
213	0xbdbe9d4d	-0.093073465
214	0x3cdad30f	0.026711969
215	0x3d3b7f9e	0.045776002
216	0x3dac12f5	0.08402053
217	0xbe02869b	-0.1274666
218	0xbdbaff91	-0.09130777
219	0xbd9871f8	-0.07443613
220	0xbe0b6186	-0.13611421
221	0xbd8ba40c	-0.06818399
222	0xbdc3995c	-0.09550735
223	0xbe107a87	-0.1410924
224	0xbd5aa67f	-0.05338144
225	0x3dbd95b1	0.09257067
226	0xbd16fa63	-0.03685988
227	0xbca49753	-0.020091688
228	0x3c88cf5f	0.016700445
229	0xbd8954ae	-0.067056045
230	0xbdeadd07	-0.11467939
231	0xbd4f7e2b	-0.050657433
232	0xbc122cc4	-0.008921806
233	0x3d8e4967	0.06947594
234	0xbe06a7f6	-0.1315001
235	0xbd106f8c	-0.03526263
236	0x3c588ee3	0.013217661
237	0xbd1460c2	-0.036225088
238	0xbda8d7af	-0.082442634
239	0xbc2a7eda	-0.01040622
240	0xbde68817	-0.11256426
241	0x3dbdce6b	0.09267887
242	0xbdfc336b	-0.12314495
243	0xbd85c125	-0.0653098
244	0x3d30add0	0.04313451
245	0x3d8340e6	0.06408863
246	0xbdbfbe7a	-0.093625024
247	0x3dd7d6e0	0.10539031
248	0xbd8eb832	-0.06968726
249	0xbde841c3	-0.11340668
250	0xbda2c08a	-0.0794688
251	0xbddd6ef2	-0.10812177
252	0xbe15e2d1	-0.14637305
253	0xbb22d4bd	-0.002484604
254	0xbdc1c265	-0.09460906
255	0x3d88a751	0.06672538

linear2.bias f4 [3]
0	0xbc812311	-0.015763791
1	0xbe125759	-0.14291133
2	0xbd4ea969	-0.05045453
